Neurop-generation/checkpoints/best_model.pt (torch, 282997 bytes, 53 tensors)

gcn.gc1.weight f4 [2, 32]
000000 f9 1c d0 be e6 78 39 be 71 c3 d1 3d da 57 42 bc
       -0.40647104 -0.18112525 0.102423556 -0.011861766
000010 15 bd 9e be 2c 65 8c 3d ca dc a2 be c9 79 b6 be
       -0.31003633 0.068552345 -0.31809074 -0.3563979
000020 5a e0 6c be 46 3e bc be c5 42 7f be b3 0d e5 3e
       -0.23132458 -0.3676626 -0.24927814 0.44737014
000030 d5 80 0e 3e 12 f6 34 3e c4 9a c8 be ca 42 8d be
       0.13916333 0.17671993 -0.39180577 -0.2759002
000040 eb 2e 0f be 14 09 7e 3d a3 6e ad be d2 58 39 be
       -0.13982742 0.062020376 -0.33873472 -0.18100289
000050 34 64 86 be 4d 20 c4 3c 3e 83 c6 bd 30 78 ee bc
       -0.26248324 0.023941183 -0.09693001 -0.029110044
000060 7c ac 6f be c7 a1 93 be ab f5 7a be a7 3e 13 be
       -0.23405641 -0.28834364 -0.24507777 -0.14379369
000070 89 99 b1 be 51 f5 c5 3e b7 be aa bd 51 c9 d7 3e
       -0.3468745 0.38663724 -0.08337157 0.4214578
000080 33 08 06 3e 8a 68 d5 be 19 6f 96 3e 87 67 25 be
       0.13089065 -0.4168132 0.29381636 -0.16152774
000090 67 a0 1f be 41 5c d1 be c3 87 c5 be 71 26 f6 3d
       -0.15588532 -0.40890697 -0.3858014 0.12019051
0000a0 2c ef bb bd 3d 79 27 3e 2a 1d bb be 42 98 90 3e
       -0.09176478 0.16354842 -0.36545688 0.28241163
0000b0 c2 3b bd be f7 14 f9 bd 82 b2 b3 3d f1 12 5e 3e
       -0.36959654 -0.12162202 0.08774282 0.21686913
0000c0 85 a3 ad 3e dd 83 c5 3e c6 8f bb be 76 84 d8 3d
       0.33913818 0.38577166 -0.36633128 0.1057214
0000d0 b8 9b 2d be 70 bb 92 bd 9e 28 c0 be 05 e9 c3 3e
       -0.16953933 -0.07164657 -0.37530988 0.38263717
0000e0 9f c3 b8 be 1d e7 65 3e 69 2d 17 3e f7 c8 0b 3e
       -0.36086747 0.22451444 0.14763416 0.13650881
0000f0 6d af 58 be 52 e8 b0 3e ee 0e bd 3d 72 18 f2 bb
       -0.2116067 0.34552246 0.09231363 -0.007388168

gcn.gc1.bias f4 [32]
000000 00 00 00 00 2c 99 77 3d 4a 74 aa bb 70 bc 37 3d
       0.0 0.06044881 -0.005201851 0.044857442
000010 1d 3f a9 bb 97 20 74 3d 7c 17 01 bd 00 00 00 00
       -0.0051649944 0.059601393 -0.031516537 0.0
000020 00 00 00 00 00 00 00 00 b0 16 9f 3c 48 55 e5 3c
       0.0 0.0 0.019419998 0.027994767
000030 d7 18 78 3d 7c 2e 45 3d 00 00 00 00 00 00 00 00
       0.060570564 0.048140034 0.0 0.0
000040 00 00 00 00 0a 83 68 bb 66 e1 17 3d 00 00 00 00
       0.0 -0.0035478496 0.03708019 0.0
000050 2e 20 27 bc a4 21 c2 3c 0a b0 76 3d 00 00 00 00
       -0.010200543 0.023697682 0.060226478 0.0
000060 63 78 53 3d 00 00 00 00 00 00 00 00 00 00 00 00
       0.05162848 0.0 0.0 0.0
000070 6e a1 7f bc fe 6f 0d 3d 00 00 00 00 67 cb 78 3d
       -0.015602453 0.034530632 0.0 0.060740855

gcn.gc2.weight f4 [32, 64]
000000 ea 99 61 be 84 ee d6 3d 00 9f 19 bd 44 8f ea bd
       -0.2203137 0.10494712 -0.03750515 -0.11453107
000010 ec e3 5b 3e b0 4c 64 3d 86 a3 0d be 52 92 01 be
       0.21473664 0.055737197 -0.1383191 -0.12653473
000020 80 9b 43 bc c4 f0 0e 3e 54 d5 82 bd 32 11 12 be
       -0.01193893 0.13959032 -0.06388345 -0.14264372
000030 ac 54 af bd 4c 40 3f be 88 98 b6 3d 80 27 46 3e
       -0.08561072 -0.18676871 0.08915812 0.19351006
000040 3c 02 71 be 20 d3 6d 3d 5c 3f 04 3e 68 ae 39 3d
       -0.23536009 0.058062673 0.12914795 0.045332342
000050 f8 55 b6 bd 00 9e 05 3e 08 88 06 3e 64 73 bf 3d
       -0.08903116 0.13048553 0.1313783 0.09348181
000060 50 f0 33 bd 08 94 87 bd d0 18 db 3c d0 e4 34 bd
       -0.04393035 -0.066200316 0.02674523 -0.044163525
000070 98 93 98 bd 10 a3 23 3e 9c 01 5c 3e 20 bf ca bc
       -0.07450026 0.15980172 0.21484989 -0.024749339
000080 38 45 65 bd 80 14 6f 3b a0 90 74 bc 60 2e 76 3d
       -0.055974215 0.0036480725 -0.014927059 0.06010282
000090 c8 7a 8f 3d 84 83 68 be 84 f2 bc bd cc 95 57 3e
       0.070058405 -0.22706419 -0.09225944 0.21053237
0000a0 c0 73 c7 3d a0 b9 4b bc 08 58 1a be 42 9f 1c be
       0.097388744 -0.012434393 -0.15072644 -0.15295127
0000b0 fa 50 65 be 8c e4 a6 bd 90 e7 ac 3d 2c 3b 23 3e
       -0.22394171 -0.081490606 0.084426045 0.15940541
0000c0 98 63 ec 3d 28 4a 62 be e4 f2 19 be b0 9a 21 bd
       0.115424335 -0.22098601 -0.15034062 -0.039454162
0000d0 38 a4 77 3e 18 21 14 3d d0 97 84 bd 7c d2 d3 3d
       0.24183738 0.036164373 -0.064742684 0.10342881
0000e0 e8 02 c3 bd 8c b2 25 be e4 d9 3a 3e ac ce e8 bd
       -0.09522039 -0.16181391 0.18247181 -0.113675445
0000f0 28 47 4d bd 7e ab 7e be 52 55 2b 3e 58 f4 41 3e
       -0.050116688 -0.24870107 0.16731766 0.18940866
000100 4f d5 7a 3d 08 05 6e be 33 79 8c be ed 0d 85 be
       0.061238583 -0.23244107 -0.27436218 -0.25987187
000110 35 c0 fe 3d 14 5e 9a 3d 1d 0f 8b 3e be 6a 45 3e
       0.12439004 0.07537475 0.27159968 0.19279
000120 bd df f5 3d 06 b0 75 3d 65 05 11 be 2a d9 8b be
       0.12005565 0.059982322 -0.14162214 -0.2731412
000130 09 dd 8b be 4f 3b 25 3d cd 11 37 be 52 d1 e4 bd
       -0.27317074 0.040339764 -0.17877884 -0.11172737
000140 a6 c5 2c be a7 7f 4e 3c 89 43 f5 bd 2f 94 d4 bd
       -0.16872272 0.012603677 -0.11975772 -0.10379826
000150 25 58 13 3e ed 4d 09 bd 22 9a 38 3e f5 24 a3 bc
       0.14389093 -0.03352158 0.18027547 -0.019915083
000160 da fe 78 be 5c ad d8 bd a0 2f 38 be 0f 11 0a be
       -0.24315968 -0.10579941 -0.17986917 -0.1348307
000170 cc cf 37 be dd 70 a0 3d bf 2f 70 be 1b e3 92 3d
       -0.17950362 0.07834027 -0.23455714 0.07172223
000180 97 fc 32 3e f0 c1 6b 3e fb 82 71 be ce 64 fa 3d
       0.17479168 0.230232 -0.23585121 0.12226258
000190 e0 93 37 be 3d 91 1e 3e f3 65 96 3e a6 cd c5 bd
       -0.17927504 0.15485092 0.29374656 -0.09658365
0001a0 a1 f0 47 3d e6 22 f3 bd 53 6e 78 be 32 aa 38 3e
       0.048813466 -0.11871891 -0.24260835 0.18033674
0001b0 2a 25 9e be a6 e3 58 3e b9 a7 1e 3e 1e b9 98 3e
       -0.3088773 0.21180591 0.15493669 0.29828733
0001c0 82 0b f3 3a 69 25 88 be f4 fe a6 bb f7 6e 46 3e
       0.0018542858 -0.26591042 -0.0050963107 0.19378267
0001d0 b9 d9 4a be aa 46 ef bd 44 f2 4e be af 10 a8 bd
       -0.19809617 -0.116834 -0.20209605 -0.08206307
0001e0 5d 67 3a be 89 de 26 be b8 82 a6 bc 12 58 34 be
       -0.18203492 -0.16295828 -0.020326003 -0.17611721
0001f0 ee 2e 71 3e 5c df 8a 3e 26 06 bc bd d4 ef 02 3c
       0.23553059 0.27123535 -0.0918086 0.00799175
000200 42 84 ea bd c8 e8 6a be 3e 35 81 be 6b c4 c5 3d
       -0.114510074 -0.22940361 -0.25235933 0.096566044
000210 8b cc 12 be 89 88 27 be 29 d5 6b bc 57 1c a1 bd
       -0.1433584 -0.16360678 -0.014394083 -0.078667335
000220 04 cb 97 bd 5c a1 58 3c 01 42 43 bd 0c ab aa bd
       -0.07411769 0.013222065 -0.047670368 -0.08333406
000230 ff 2f 04 be d9 45 55 be 52 d5 56 3e 58 2b d7 bd
       -0.12908934 -0.20827426 0.20979813 -0.10506314
000240 15 48 72 3d 83 51 9f bd ef 7b 97 3c f0 9e 72 3e
       0.059150774 -0.07779219 0.018491713 0.23693442
000250 6a 65 f2 3d 9e f8 58 be 76 ff d3 3d bf fd 77 3e
       0.118357494 -0.2118859 0.1035146 0.2421789
000260 bb 16 73 3d d5 07 27 3e f5 fa 7d 3e d5 10 34 bd
       0.05934785 0.16311581 0.24802764 -0.043961365
000270 05 6a 84 3d f7 3d 35 be ce 4f 60 bd 66 be 35 3e
       0.06465534 -0.17699419 -0.054763608 0.17748412
000280 e6 eb 08 3e 4b b5 16 be 15 be 53 be d0 0b 36 be
       0.13371238 -0.14717595 -0.2067798 -0.17777944
000290 ef 64 80 be bd 7e 3f be 0f 04 65 bd da 8a 29 3e
       -0.25077006 -0.1870069 -0.055912074 0.16556874
0002a0 ab 35 32 3d 47 61 45 be 6e 87 4f be 2b c4 03 3e
       0.043508213 -0.1927539 -0.20266506 0.12867801
0002b0 78 3f 42 be a4 98 c7 bc 0f 45 f5 3d 21 44 e2 bd
       -0.18969524 -0.024364777 0.119760625 -0.11048151
0002c0 c3 7d bf bc a3 1a de bc 3f d6 86 bd 8b c4 04 be
       -0.023375398 -0.02711231 -0.06583833 -0.129656
0002d0 57 2f 64 be 4a 23 54 be a6 e3 07 be 1f 72 72 3e
       -0.22283684 -0.20716587 -0.13270435 0.23676346
0002e0 99 2f 04 be bc 86 30 be 90 70 82 3d 6f 59 98 3d
       -0.12908782 -0.17238897 0.06369126 0.07438933
0002f0 d5 fc 0e 3e 88 83 47 3e 53 55 06 3e 3e 58 7a be
       0.13963635 0.19483769 0.13118486 -0.24447724
000300 92 95 d2 bb b8 d0 c4 3d d9 63 42 bd c4 3a 4f be
       -0.0064265216 0.096101224 -0.047458503 -0.20237261
000310 10 33 35 3e 6e 13 09 be 13 6a a8 bd 80 9e 27 be
       0.1769526 -0.13386318 -0.08223357 -0.16369057
000320 81 47 87 3d a7 9f 30 3e e3 4a cd 3d 24 cc 16 bc
       0.06605435 0.17248403 0.10024049 -0.009203944
000330 64 d6 66 be 5e 10 97 be e8 2f 4f bd d3 6b 2b 3e
       -0.22542721 -0.29504675 -0.050582796 0.1674035
000340 6b 48 f6 3d a5 a0 b3 bd 01 c8 b8 3c de a2 02 be
       0.120255314 -0.08770875 0.022556307 -0.12757441
000350 ee b0 75 bd 40 0e ad 3d cb c0 22 3e b8 53 88 3e
       -0.059983186 0.084499836 0.15893857 0.26626372
000360 9d ab 93 be e2 55 da 3d 81 36 70 be 15 c9 19 3d
       -0.28841868 0.10660912 -0.23458292 0.037545282
000370 e3 4b 89 3e 46 0b 6d bd 95 79 2c 3e 1c b9 87 be
       0.2681571 -0.05787208 0.16843255 -0.26508415
000380 0c 95 0e bd 40 a9 48 3e 5e 76 c3 bd 4c 68 da bd
       -0.03481011 0.19595814 -0.09544061 -0.10664424
000390 eb 01 28 be d5 15 6f 3e 5d 40 38 3e 8c 81 9f 3c
       -0.16406982 0.23348172 0.17993303 0.019470952
0003a0 c1 35 bb bd 08 a1 86 be 10 64 85 bb b7 92 07 3e
       -0.09141112 -0.26294732 -0.0040707663 0.13239561
0003b0 43 8d 33 be 06 f5 68 bc bc 74 0e 3e 65 0e a7 3d
       -0.17534356 -0.014218574 0.13911718 0.081570424
0003c0 1a f3 8f 3d a8 16 f9 bd bb bd 92 be de 52 39 be
       0.0702879 -0.121625245 -0.28660378 -0.18098018
0003d0 a0 44 91 bd 38 e8 3e be 9a 4a d8 3c a8 95 07 be
       -0.07093167 -0.18643272 0.02640276 -0.13240683
0003e0 f3 91 1e be da aa 36 3e be 3d 14 3e 0e d7 73 3e
       -0.15485363 0.17838612 0.14476678 0.23812506
0003f0 ed eb c0 bd 8c 6c 2a bd 7b 22 2b 3d b2 07 07 be
       -0.09419999 -0.041607425 0.04178093 -0.1318653

gcn.gc2.bias f4 [64]
000000 4c fa 3b bd 2b c6 87 bd 07 31 2f bd 43 b3 8b bd
       -0.045893 -0.066295944 -0.042771365 -0.06821301
000010 42 ba 94 bd 60 be 6c bd 41 72 90 3d e2 94 92 3d
       -0.07262088 -0.057798743 0.07053042 0.071573034
000020 cb c2 86 3d 4a ae 92 3d e1 1b 79 3d c9 c2 89 bd
       0.065801226 0.07162149 0.060817603 -0.067266054
000030 be 45 57 bd 1e 15 91 bd b7 68 88 bd 40 49 91 bd
       -0.052556746 -0.07084106 -0.06660598 -0.070940495
000040 07 55 2e bd 87 67 8e 3d 2d f4 8a 3d 31 48 8f 3d
       -0.042561557 0.0695334 0.06784854 0.06996191
000050 35 a0 93 3d e9 a3 6b 3d 7a 42 33 3d 33 75 8c 3d
       0.072082914 0.057529364 0.04376457 0.068582915
000060 ee c1 8b bd 4f 1d 8f bd 62 a8 8d bd 31 24 90 bd
       -0.068240985 -0.06988012 -0.06916882 -0.07038153
000070 5b f3 97 3d 59 6d 91 bd cc a9 8b bd b1 bc 86 bd
       0.07419463 -0.071009345 -0.068194956 -0.06578959
000080 5f c2 97 3d 1b aa 86 3d 87 99 6c bd 12 ed 90 bd
       0.0741012 0.06575414 -0.057763603 -0.070764676
000090 79 9e 8e bd 94 a4 92 3d c9 64 88 3d 62 ca 8e bd
       -0.0696382 0.07160297 0.06659848 -0.06972195
0000a0 bc eb 80 3d 91 0e 92 bd 5c 04 24 bd cc 47 91 3d
       0.06294963 -0.071316846 -0.04004322 0.07093772
0000b0 92 cf 91 bd e2 05 8d 3d 41 af 3a bd 5e fd 93 3d
       -0.07119669 0.06885888 -0.04557729 0.0722606
0000c0 8e 1b 93 3d 87 ba 8d bd a0 67 91 bd 5b 2f 82 3d
       0.0718299 -0.06920343 -0.07099843 0.063566886
0000d0 62 2e 7e 3d 0b eb 8c bd 2d 23 7a bd 90 97 91 bd
       0.062055953 -0.068807684 -0.061068702 -0.071089864
0000e0 b1 be 8d bd e7 09 8e bd 6f 27 92 3d c4 5e 91 3d
       -0.06921137 -0.069354825 0.071364276 0.07098153
0000f0 b0 55 2c 3d e6 e1 93 3d 68 7a 83 bd 74 e2 45 3d
       0.042073905 0.07220821 -0.064198315 0.048311666

input_proj.weight f4 [64, 64, 1]
000000 fa 60 bb bc f4 e7 88 bd 9e 24 60 3d b3 3f 28 be
       -0.02287339 -0.066848665 0.05472242 -0.1643055
000010 bc f0 32 3c 0f 9f 14 be 5e 03 70 bd 65 59 cf 3c
       0.010921653 -0.14513801 -0.05859696 0.025311181
000020 c4 f7 e7 3d 0a 0e 11 3e f5 60 b4 3d d5 3a 7c bd
       0.113265544 0.14165512 0.088075556 -0.061579544
000030 89 d5 75 bd 89 c2 cf bd 95 51 99 bd 7d 2d 8b bd
       -0.060018096 -0.101445265 -0.07486264 -0.067957856
000040 98 f8 61 3d 2f 11 0d 3e 0c 1f 32 bd d2 6c 8f 3d
       0.055168718 0.13776086 -0.04348664 0.07003178
000050 c0 48 c8 bc 01 4a e8 3c b5 01 4c bd 62 a7 ac 3d
       -0.024448752 0.0283556 -0.049806315 0.08430363
000060 9e 28 0e be 6d 7f 9a 3d 58 c6 34 3d b5 7f 1b be
       -0.13882682 0.07543836 0.044134468 -0.15185435
000070 93 c2 45 bd de 1d 49 bd 3e 05 b2 bd f1 12 4b bc
       -0.048281264 -0.04910075 -0.08692406 -0.012394653
000080 46 2d 88 bc 4e 11 d3 3d e7 46 24 be 6c 7f 0a be
       -0.01662315 0.10306035 -0.16042672 -0.1352517
000090 75 4f ed bd 25 a5 e6 3d 6e da 44 3d c6 d3 2f be
       -0.11587421 0.112619676 0.048059873 -0.17170629
0000a0 21 a9 ac bc 60 c5 e3 bd d1 3d 27 be 1c 95 89 3d
       -0.02107674 -0.11121631 -0.16332175 0.067178935
0000b0 80 2a f7 bb 77 2b 2b 3d cd d8 f2 bd 03 28 42 3d
       -0.007542908 0.0417895 -0.11857758 0.04740144
0000c0 81 b6 07 bd 9e 53 03 be e7 89 7c bd fc 6b 25 3e
       -0.033133034 -0.12824866 -0.06165495 0.16154474
0000d0 fb a7 48 3c ca 5a 42 3c 37 55 d5 bd 08 da a9 bd
       0.012247081 0.011862466 -0.10416644 -0.08293539
0000e0 2c 14 37 be 8c 70 50 3d b7 1e 3e 3e 8c f5 4c 3d
       -0.17878789 0.050888583 0.18566404 0.05003886
0000f0 75 90 ed 3d 69 31 1d 3e 20 b4 25 3c be c2 eb 3d
       0.115998186 0.1535088 0.010113746 0.115117535
000100 46 66 d3 bd 5f bc bd bd d5 2b c2 bd 8e cd bf 3d
       -0.103222415 -0.092644446 -0.094810165 0.09365378
000110 2a cc b4 bd 50 ab 34 bd d8 fc a9 bd 63 28 0e be
       -0.08828004 -0.04410869 -0.08300179 -0.13882594
000120 74 09 bf bc 64 57 2a bc f7 78 c8 bd 26 3e dc 3d
       -0.023319937 -0.010396812 -0.09788697 0.107540414
000130 55 99 19 bd 76 a7 4d bc dd a3 14 3e ab 51 17 3e
       -0.037499744 -0.012552133 0.14515634 0.14777248
000140 f3 6f 0d bb 37 c2 0e be 54 f1 ce bd 5a cd 08 bd
       -0.002158162 -0.13941275 -0.101046234 -0.033398964
000150 54 8a 3a 3d e3 de 4a 3d 60 4a 63 bd 97 16 12 be
       0.045542076 0.049528968 -0.05549085 -0.1426643
000160 08 04 c3 bd 82 d8 dc bc 86 d1 b8 3c de a1 9d bb
       -0.09522253 -0.026958708 0.022560846 -0.004810556
000170 9f 40 1c be 91 52 3b 3d d9 81 96 bd 53 90 ac bd
       -0.15259026 0.04573304 -0.07348985 -0.08425965
000180 fa d6 20 be 94 9d 5c bd 5d 2c 2c 3e 12 24 c8 3d
       -0.15707007 -0.053861216 0.16813798 0.09772505
000190 84 b3 ad 3b 88 cd 71 b9 2a c3 de 3c e6 3d c6 3c
       0.005300941 -0.00023060117 0.02719267 0.024199437
0001a0 13 dc f4 bd b1 84 42 bd 9b 6e a9 bd 54 c0 e2 bc
       -0.11956038 -0.047489826 -0.082730494 -0.0276796
0001b0 82 5e b0 bd ff c0 9f bd c2 1e 7d bc d8 5c e0 3d
       -0.08611776 -0.07800483 -0.015449228 0.109552085
0001c0 e1 0c 3f 3d fa 90 cc 3d 21 72 3c 3d 3b 48 83 bd
       0.04664314 0.099885896 0.04600728 -0.06410261
0001d0 be 0c 81 3c a9 b1 8e bd 30 b4 65 bc 31 8f 13 bc
       0.015753146 -0.0696748 -0.014020011 -0.009006307
0001e0 1c c0 34 3c 85 80 b6 bd 4b 1e da 3a e7 0d 99 3d
       0.011032131 -0.08911232 0.0016641108 0.07473355
0001f0 be 53 92 bd 8d 54 10 3c a5 2a ad 3b 9e a1 74 bc
       -0.07144879 0.008809221 0.0052846246 -0.014931111
000200 bf 83 74 bd 30 cc 23 3d e9 46 3d bd 67 a7 0c be
       -0.059695955 0.03998965 -0.046210203 -0.13735734
000210 d8 fe e5 bd cf ff 93 3c 60 98 db 3d 75 a1 90 3d
       -0.11230248 0.018066315 0.107224226 0.070620455
000220 61 f8 58 3d 56 e7 ad 3c 11 01 e9 3c 75 c9 08 be
       0.052971248 0.021228474 0.028442891 -0.133581
000230 82 1b 4a bd 3c 4b 06 bd f4 62 60 3d 4b 9e bf bd
       -0.04934264 -0.032786593 0.05478187 -0.09356364
000240 a5 c5 6b bd 4f 7f 11 3e c4 4d fe 3d b3 f3 82 3d
       -0.057561535 0.1420872 0.12417176 0.06394138
000250 d5 4c dc 3d 2e 1f 93 3d 92 7f 29 bd 89 07 97 3d
       0.10756842 0.071836814 -0.041381426 0.07374484
000260 4a 84 bf bd 4e db 41 3d 7b f3 39 3d 8b 74 a4 bc
       -0.09351404 0.047328286 0.045398217 -0.020075103
000270 bf 42 24 3e 97 ef 08 be 47 1e 22 3d 14 89 28 3d
       0.16041087 -0.13372646 0.039579656 0.041146353
000280 b5 84 45 3d c8 48 fe bc 47 fd af bd ac af a5 bd
       0.048222262 -0.031040564 -0.08593231 -0.080901474
000290 9c e0 85 bd c0 35 35 bd 7b 7e bb 3d 8e 68 f7 bd
       -0.065369815 -0.044240713 0.091549836 -0.12080489
0002a0 0f 96 11 3d 03 26 09 be 73 66 b9 bd e7 f9 43 bd
       0.035543498 -0.13393407 -0.09052744 -0.047845747
0002b0 09 e9 09 be a9 55 91 3d d2 26 1d 3d 34 84 37 3e
       -0.13467802 0.070964165 0.0383671 0.17921525
0002c0 f8 14 20 bd 7e 01 88 bc bd 22 0c be 52 41 ee bc
       -0.039082497 -0.016602274 -0.13685127 -0.029083882
0002d0 2e 2f 80 3d d1 8e 0e be b5 18 34 be 05 52 3c be
       0.06258999 -0.13921668 -0.1758755 -0.18390663
0002e0 9c 5f 18 be b9 3a 09 3d 0c 76 05 3e b9 1c a2 3c
       -0.14880222 0.033503268 0.13033313 0.019789087
0002f0 82 c0 e8 bc 68 4c e2 bc 51 67 12 be 98 f2 7a 3c
       -0.028412107 -0.027624324 -0.14297225 0.015316628
000300 ca 49 f9 3d 95 79 ca 3d 2f 18 85 39 cf b1 1a 3e
       0.12172277 0.09886471 0.00025385755 0.15106891
000310 ad ae bd bc 70 06 4a bd 30 e9 f2 bc 70 af 00 be
       -0.023154581 -0.049322546 -0.029652208 -0.12566924
000320 7c 4d bc bc 9a 5a 3c 3d 0e e3 fc bd 3e 28 04 bd
       -0.022986166 0.045984842 -0.12347995 -0.03226494
000330 db b8 d5 3d 35 2a 69 bd c4 62 26 3e c2 91 04 3c
       0.10435649 -0.056925017 0.16248614 0.008091392
000340 43 44 dd 3d 21 61 2a be 5e 7c 11 be 18 c9 33 bd
       0.108040355 -0.16638614 -0.14207599 -0.04389295
000350 71 6f 71 bc 50 65 35 3d ac 7c 5d 3d d6 2c 85 bd
       -0.014736042 0.044286072 0.054073974 -0.065026924
000360 53 7f 17 3d dc f7 93 3d b4 78 cb 3c 9c b7 76 3d
       0.03698666 0.0722501 0.02483783 0.060233697
000370 7b 4f 35 be 61 25 1e bd 90 70 13 3e 88 f1 a3 bc
       -0.177061 -0.038609866 0.14398408 -0.020012632
000380 8b 30 17 3d c2 85 30 bd 4b 12 94 3d c0 7b 2f 3e
       0.03691153 -0.04309631 0.072300516 0.1713705
000390 c9 f4 6f bc ee 80 a0 bd 7c 02 10 bd 6a b8 cb 3d
       -0.014645764 -0.078370914 -0.03515862 0.099472836
0003a0 47 91 31 be 1e f0 d7 3d 94 8e e5 bc c6 f3 29 bd
       -0.17340575 0.105438456 -0.028022088 -0.041492246
0003b0 e8 a4 13 3e 32 e6 9e bd 98 5c 3d 3d 46 a3 7a bd
       0.14418375 -0.0775875 0.046230882 -0.061190866
0003c0 ab dd 27 3d b0 9f 05 3e 6c 36 b5 3d 56 b6 03 be
       0.040982883 0.13049197 0.08848271 -0.12862524
0003d0 e5 1c f7 bd 2f ad 1d 3e 23 e0 12 3e eb 37 01 3e
       -0.12066058 0.15398096 0.14343314 0.12618987
0003e0 50 fb f5 bc b0 36 21 3e fa 23 a0 bd 61 86 05 3d
       -0.030027062 0.15743518 -0.07819362 0.032598857
0003f0 97 e0 91 3d 2e 24 33 bd a8 16 a8 3b 04 c7 90 3d
       0.07122915 -0.043735676 0.005129654 0.07069209

input_proj.bias f4 [64]
000000 51 cc 05 3e 58 5c 4a bd bc e1 34 3e 02 2a e8 bd
       0.13066222 -0.049404472 0.17664236 -0.11336137
000010 01 a7 26 3e a8 a5 c8 3d 5e c1 ea 3d e4 d5 9f bd
       0.16274644 0.097972214 0.11462663 -0.07804468
000020 8a 46 a7 bd 63 8e 1b be 3e 3c 3a be a9 49 16 3e
       -0.08167751 -0.15191035 -0.18187043 0.14676537
000030 bc 76 3a 3e 24 6c c5 3d bf 26 d4 bd df 4c bf bc
       0.18209356 0.09639767 -0.10358953 -0.023352085
000040 19 0b 32 bd 83 7c 1a be 79 f5 1a be 18 76 be 3d
       -0.043467615 -0.1508656 -0.15132703 0.09299868
000050 f5 3c d0 bd 9e b2 b4 bd 89 55 0b be ca 7f f0 3d
       -0.10167877 -0.08823131 -0.13606848 0.11743124
000060 7e 9a fb bd ae 12 39 3c f1 d8 f0 3d 6e 97 26 3e
       -0.122853264 0.0112959575 0.11760128 0.16268703
000070 47 40 2c 3e 40 de bb 3d 5b 32 40 3d cd 51 0d 3e
       0.16821395 0.0917325 0.046923023 0.13800736
000080 ef 55 2e 3e aa 74 d0 3d b6 60 c8 3d 10 0e a5 3d
       0.17024969 0.10178502 0.09784071 0.08059323
000090 86 76 32 bd 59 ba e2 3d 5f 52 ae 3d 32 f6 28 be
       -0.043570064 0.11070699 0.08511805 -0.16500166
0000a0 7b 78 cf bc 71 bb 01 be 0e 61 ce bd e2 97 d5 3c
       -0.025326004 -0.1266916 -0.100771055 0.0260734
0000b0 42 8a a4 bd 33 e5 2e be 2d 46 bc bd 7d f9 b6 3d
       -0.08034183 -0.1707962 -0.091930725 0.08934305
0000c0 6c ac 71 bd 2f 11 81 bd 78 8b a7 3d f5 ca 7f bd
       -0.059002325 -0.06302106 0.081808984 -0.062449414
0000d0 81 5b b8 bd ae 1c f2 bd 91 75 d9 bd 08 2f 1c be
       -0.09001828 -0.118218765 -0.10618127 -0.15252316
0000e0 93 4f 33 be 28 47 2f bc d0 3a 35 3c 82 a6 26 3e
       -0.17510824 -0.010698117 0.011061385 0.16274455
0000f0 cd f7 61 3d 42 75 f1 3d 57 81 c6 3d 19 8d 28 be
       0.055167962 0.11789943 0.09692638 -0.16460074

mwt_layers.0.decompose.H0 f4 [4, 4]
000000 f3 04 35 3f ce e6 78 23 11 0c e7 a6 b6 c3 07 23
       0.70710677 1.3492982e-17 -1.6032116e-15 7.359808e-18
000010 f3 04 b5 be ef 5b f1 3d 18 4f 66 26 26 4c 3d a6
       -0.35355338 0.11785113 7.990447e-16 -6.567575e-16
000020 7f 96 ed a5 f3 04 35 be c3 d0 10 3d 89 6a 8a 26
       -4.1214927e-16 -0.17677669 0.03535534 9.60455e-16
000030 f3 04 b5 3d f3 04 b5 3d f3 04 b5 bd 16 e1 4e 3c
       0.088388346 0.088388346 -0.088388346 0.012626907

mwt_layers.0.decompose.H1 f4 [4, 4]
000000 f3 04 35 3f f3 04 b5 a1 f9 82 e3 a6 55 64 9e a3
       0.70710677 -1.2266347e-18 -1.5786789e-15 -1.7172887e-17
000010 f3 04 b5 3e ef 5b f1 3d 35 fb 62 a6 20 62 3b a6
       0.35355338 0.11785113 -7.874995e-16 -6.501164e-16
000020 49 cf e5 a5 f3 04 35 3e c3 d0 10 3d 8e 1f 8b a6
       -3.986563e-16 0.17677669 0.03535534 -9.653615e-16
000030 f3 04 b5 bd f3 04 b5 3d f3 04 b5 3d 16 e1 4e 3c
       -0.088388346 0.088388346 0.088388346 0.012626907

mwt_layers.0.decompose.G0 f4 [4, 4]
000000 f5 e7 20 bf f5 e7 a0 be 7a 46 cc 25 f5 e7 a0 3d
       -0.6285394 -0.3142697 3.5436116e-16 0.07856742
000010 54 0b 81 23 ce 6a b9 be 1b 10 0b bf 1b 10 8b be
       1.3991006e-17 -0.36214298 -0.5432145 -0.27160725
000020 9b 82 85 bd 9b 82 05 bd d7 2d 87 be 42 e3 26 bf
       -0.06519052 -0.03259526 -0.2640216 -0.6519052
000030 d1 b7 7f 26 c5 46 1a 3e 27 6a 67 3e 00 22 27 bf
       8.8720015e-16 0.15066059 0.22599088 -0.65286255

mwt_layers.0.decompose.G1 f4 [4, 4]
000000 34 7e 22 bf d6 c8 d7 3d cb f8 fb bc 7b d1 17 bc
       -0.6347382 0.10536353 -0.030758282 -0.009266253
000010 be 0d cf be d6 d8 9b be 3e 1e 38 3e 20 63 84 3b
       -0.40440172 -0.3043887 0.17980286 0.004040137
000020 5c 8c 2f be 0f 03 24 bf ab 1f b8 3d fb 89 1b 3e
       -0.17143387 -0.6406717 0.08990415 0.15189354
000030 fc da 8e bd da ab f6 be c6 9a 3c bf 6b d7 5a be
       -0.06975362 -0.48177987 -0.73673666 -0.21371238

mwt_layers.0.reconstruct.H0 f4 [4, 4]
000000 f3 04 35 3f ce e6 78 23 11 0c e7 a6 b6 c3 07 23
       0.70710677 1.3492982e-17 -1.6032116e-15 7.359808e-18
000010 f3 04 b5 be ef 5b f1 3d 18 4f 66 26 26 4c 3d a6
       -0.35355338 0.11785113 7.990447e-16 -6.567575e-16
000020 7f 96 ed a5 f3 04 35 be c3 d0 10 3d 89 6a 8a 26
       -4.1214927e-16 -0.17677669 0.03535534 9.60455e-16
000030 f3 04 b5 3d f3 04 b5 3d f3 04 b5 bd 16 e1 4e 3c
       0.088388346 0.088388346 -0.088388346 0.012626907

mwt_layers.0.reconstruct.H1 f4 [4, 4]
000000 f3 04 35 3f f3 04 b5 a1 f9 82 e3 a6 55 64 9e a3
       0.70710677 -1.2266347e-18 -1.5786789e-15 -1.7172887e-17
000010 f3 04 b5 3e ef 5b f1 3d 35 fb 62 a6 20 62 3b a6
       0.35355338 0.11785113 -7.874995e-16 -6.501164e-16
000020 49 cf e5 a5 f3 04 35 3e c3 d0 10 3d 8e 1f 8b a6
       -3.986563e-16 0.17677669 0.03535534 -9.653615e-16
000030 f3 04 b5 bd f3 04 b5 3d f3 04 b5 3d 16 e1 4e 3c
       -0.088388346 0.088388346 0.088388346 0.012626907

mwt_layers.0.reconstruct.G0 f4 [4, 4]
000000 f5 e7 20 bf f5 e7 a0 be 7a 46 cc 25 f5 e7 a0 3d
       -0.6285394 -0.3142697 3.5436116e-16 0.07856742
000010 54 0b 81 23 ce 6a b9 be 1b 10 0b bf 1b 10 8b be
       1.3991006e-17 -0.36214298 -0.5432145 -0.27160725
000020 9b 82 85 bd 9b 82 05 bd d7 2d 87 be 42 e3 26 bf
       -0.06519052 -0.03259526 -0.2640216 -0.6519052
000030 d1 b7 7f 26 c5 46 1a 3e 27 6a 67 3e 00 22 27 bf
       8.8720015e-16 0.15066059 0.22599088 -0.65286255

mwt_layers.0.reconstruct.G1 f4 [4, 4]
000000 34 7e 22 bf d6 c8 d7 3d cb f8 fb bc 7b d1 17 bc
       -0.6347382 0.10536353 -0.030758282 -0.009266253
000010 be 0d cf be d6 d8 9b be 3e 1e 38 3e 20 63 84 3b
       -0.40440172 -0.3043887 0.17980286 0.004040137
000020 5c 8c 2f be 0f 03 24 bf ab 1f b8 3d fb 89 1b 3e
       -0.17143387 -0.6406717 0.08990415 0.15189354
000030 fc da 8e bd da ab f6 be c6 9a 3c bf 6b d7 5a be
       -0.06975362 -0.48177987 -0.73673666 -0.21371238

mwt_layers.0.reconstruct.Sigma0 f4 [4, 4]
000000 00 00 80 3f 00 00 00 00 00 00 00 00 00 00 00 00
       1.0 0.0 0.0 0.0
000010 00 00 00 00 00 00 80 3f 00 00 00 00 00 00 00 00
       0.0 1.0 0.0 0.0
000020 00 00 00 00 00 00 00 00 00 00 80 3f 00 00 00 00
       0.0 0.0 1.0 0.0
000030 00 00 00 00 00 00 00 00 00 00 00 00 00 00 80 3f
       0.0 0.0 0.0 1.0

mwt_layers.0.reconstruct.Sigma1 f4 [4, 4]
000000 00 00 80 3f 00 00 00 00 00 00 00 00 00 00 00 00
       1.0 0.0 0.0 0.0
000010 00 00 00 00 00 00 80 3f 00 00 00 00 00 00 00 00
       0.0 1.0 0.0 0.0
000020 00 00 00 00 00 00 00 00 00 00 80 3f 00 00 00 00
       0.0 0.0 1.0 0.0
000030 00 00 00 00 00 00 00 00 00 00 00 00 00 00 80 3f
       0.0 0.0 0.0 1.0

mwt_layers.0.A.weight f4 [64, 64, 1]
000000 e3 b9 26 ba 41 10 aa bd 96 38 33 bd 92 06 38 bd
       -0.0006360097 -0.083038814 -0.043755136 -0.04492814
000010 ec c5 b6 3d ec 02 04 bd f8 11 14 3d 30 fb 33 be
       0.08924469 -0.03222935 0.03614995 -0.17576289
000020 c2 fb 6d 3d c3 3a 59 3c 4f 55 da bd a5 b1 2b 3e
       0.058101423 0.013258639 -0.106608026 0.16766985
000030 44 5b 9a bc d9 be 2c 3e aa e1 e4 bd cc 94 2e bc
       -0.018842347 0.16869678 -0.111758545 -0.010655593
000040 1c 23 91 3c 78 6a fd ba f1 52 f7 bc a3 c2 45 3d
       0.017716937 -0.0019334098 -0.030190917 0.048281323
000050 fe 1b 85 bd 05 04 24 3d 88 c6 d0 bd 48 ed b0 3c
       -0.0649948 0.040042896 -0.10194117 0.02159752
000060 ca 8d 3a bd 15 fa 35 bd 32 e7 78 3c 6d 88 8d 3d
       -0.045545377 -0.04442795 0.01519184 0.06910787
000070 0e 77 1d 3e 43 ba dc 3d b7 8b 01 bd ad 92 0b 3e
       0.15377447 0.10777714 -0.031627383 0.13630171
000080 09 78 63 3c 23 4a bf 3d f4 43 93 3d 4f 96 1b 3e
       0.013883599 0.09340312 0.071906954 0.15194057
000090 a5 e6 af bd 5c 72 27 3c 2a 13 21 3d 77 ad 71 bd
       -0.08588914 0.0102201365 0.039324917 -0.05900332
0000a0 3e 39 12 bd 26 ce 09 3d 49 0e 06 be 1a e2 18 3d
       -0.03569912 0.033643864 -0.13091387 0.037325002
0000b0 ae 55 1b be 32 0a 98 bd 14 1c af bd 24 72 62 3c
       -0.15169403 -0.074238196 -0.08550277 0.013821159
0000c0 40 82 5b bb 17 4c 39 be 07 ca a0 3d 58 bf a2 bd
       -0.0033494383 -0.18095432 0.07851034 -0.07946652
0000d0 f1 1e 01 be aa 05 10 3d 51 64 7e 3c 37 c5 af bc
       -0.1260946 0.03516165 0.015526847 -0.021456344
0000e0 8d 2e 6a bd 62 43 b9 3d 54 d8 b2 bd dc 45 2c bd
       -0.0571733 0.090460554 -0.087326676 -0.04205881
0000f0 24 cd 3d 3e 4c 4e 6d 3c 00 07 b3 3d 49 d8 6b bd
       0.18535286 0.014483999 0.087415695 -0.057579312
000100 87 c0 1a 3e 87 74 cd 3d a4 10 22 bd 0d 42 4f bd
       0.15112506 0.100319915 -0.03956665 -0.0506001
000110 6d 16 70 bd 10 e0 07 3e 4a ac 2f 3e 92 f1 d4 bd
       -0.058615137 0.13269067 0.17155567 -0.103976384
000120 13 b4 14 bd f5 3a 9b bd 8f fd 98 bd 31 a9 16 3e
       -0.036304545 -0.075796045 -0.074702375 0.14712979
000130 c1 a1 8f bd ce 74 1d 3d 43 05 5c bd 02 01 0e be
       -0.07013274 0.03844147 -0.053715955 -0.13867572
000140 f7 5e 03 bc 93 61 2f 3d 3e e6 11 be e3 a1 d5 3d
       -0.008018247 0.042817663 -0.14247987 0.10431268
000150 a8 df 86 bd 1b d2 80 3d 59 ba 2c be d7 94 1f 3e
       -0.06585628 0.062900744 -0.16867961 0.15584122
000160 1e 58 c5 bd 8f 9b da 3d a3 8b 8c bc 72 c3 80 3d
       -0.09635948 0.10674202 -0.017156428 0.06287278
000170 33 b2 97 3d 60 eb ff 3d 50 09 ce 3d 3c e8 f3 3d
       0.07407036 0.12496066 0.1006037 0.119095296
000180 c4 f2 a5 3c 56 a4 50 bd 91 ab 67 3d 48 2f 32 3e
       0.020257361 -0.050937973 0.056560103 0.17400849
000190 53 98 66 3d 5f 4c 13 bd 1e 0b 09 3e c7 ee 26 3c
       0.05629761 -0.035961505 0.13383147 0.010188765
0001a0 aa c5 98 bc 6e e3 18 3d 96 65 77 bd a6 dc 03 3d
       -0.018648941 0.03732627 -0.060399614 0.03219285
0001b0 da 97 f9 bd d0 c5 6b bd af 42 b4 3d a7 ba fc 3d
       -0.121871665 -0.057561696 0.088017814 0.123402886
0001c0 3a 7f 27 be c3 35 82 bd 25 9e 0f 3e 27 23 cf bd
       -0.16357127 -0.063579105 0.14025171 -0.10114127
0001d0 57 22 4c bd 51 b5 38 3c f7 dc 6b 3d 20 14 96 3d
       -0.049837437 0.011273698 0.057583775 0.07328057
0001e0 fa 05 0c be 5e 42 f1 bd 37 90 a5 3d b9 77 fc 3c
       -0.13674155 -0.11780237 0.080841474 0.030818807
0001f0 26 2c 39 3e 04 2f 06 3e f5 24 12 3c a1 75 23 bc
       0.18083248 0.13103873 0.008919944 -0.009976775
000200 d6 04 c6 3d 9e 8e 91 bd e9 bb 29 3e 5c 22 40 bd
       0.09668891 -0.0710728 0.16575588 -0.046907768
000210 a0 81 34 3c b6 6d 60 bd 2a 66 23 3e f6 44 3e be
       0.011017233 -0.05479213 0.15956941 -0.18580994
000220 6d c1 02 3d 2f 3e cd bd 8d 30 9c bd 25 62 95 3d
       0.031922746 -0.10021626 -0.07626448 0.0729411
000230 a4 be 35 3e 0e 9b a7 bc 6c 05 18 be 1e 50 1e 3d
       0.17748505 -0.020459678 -0.14845818 0.038650624
000240 0d 72 fc bd f7 e1 c4 bd cc 6f a2 3c 7f 58 20 3c
       -0.12326441 -0.09613412 0.0198287 0.009786724
000250 b3 b5 33 3c 0f a2 e2 bd c4 76 1b 3d 47 a8 3a 3e
       0.010968613 -0.110660665 0.03795506 0.18228255
000260 d8 69 26 bd 24 11 01 bd 4e af 00 3e f6 e4 af 3d
       -0.040628284 -0.031510487 0.12566873 0.08588593
000270 3d 73 5e 3d 1a 4e 2b 3e ac 2d 26 3d 8d 26 ce 3d
       0.05430912 0.16729012 0.0405709 0.10065947
000280 18 b8 92 3c 18 0c 0c 3d 1c 25 67 3d b1 48 93 3d
       0.017910048 0.03419122 0.056431875 0.07191599
000290 a9 76 78 3b 3f f0 10 3e 5f 45 09 3e b0 e1 db bd
       0.0037912524 0.14154147 0.13405369 -0.10736406
0002a0 46 79 01 3e f4 f5 3a 3d d5 fe 85 bc 49 08 00 3d
       0.12643918 0.045644715 -0.016356865 0.0312579
0002b0 2d ee f5 bd a3 47 01 be 79 d4 2e bd 8a 5e 1b bd
       -0.12008319 -0.12624983 -0.0426831 -0.037931956
0002c0 13 93 c9 bc ed e5 35 be 5b ab 3e bd b4 a3 e2 bd
       -0.024606263 -0.17763491 -0.046550136 -0.1106638
0002d0 24 8d eb 3c fc 0e 21 3d f9 b8 25 be 8d a9 03 be
       0.028753825 0.03932093 -0.16183843 -0.12857647
0002e0 07 e0 de bc 41 1d 4f bc 2f 85 f9 bd 33 82 ad 3d
       -0.027206434 -0.012641252 -0.12183606 0.08472099
0002f0 30 e5 10 bd 6a d7 73 3d c1 dd e7 3d 86 a6 78 3d
       -0.03537482 0.059531607 0.11321593 0.060705684
000300 36 92 8d bd 94 df 8f 3d 91 6f 58 3d 6c 59 8d 3d
       -0.06912653 0.07025066 0.052840773 0.069018215
000310 fb 18 21 3e 0e 27 37 3c fe 33 af 3c 87 64 96 bd
       0.15732186 0.011178745 0.021387096 -0.07343393
000320 8a 40 56 3d 22 44 bd bd 01 15 40 3d f9 3e b6 3d
       0.052307643 -0.09241511 0.04689503 0.0889873
000330 75 47 1d 3e 13 78 06 3e 1b 7d 72 3d f8 2a 0d be
       0.1535929 0.13131742 0.05920134 -0.13785923
000340 36 3b e2 bd e3 55 fa bd e0 68 dd 3c e9 95 8b 3d
       -0.1104645 -0.12223413 0.027027547 0.068157025
000350 e5 1b f4 3a 4f 64 22 3b 44 4e 0c bd 72 e6 b3 3d
       0.0018624036 0.0024779027 -0.034254327 0.08784188
000360 c3 03 db bd 45 58 d7 3d 9f e6 8e bd 41 18 a6 bd
       -0.10694077 0.10514883 -0.06977581 -0.08110095
000370 69 f8 9f 3d 28 47 23 3e 1f f0 28 bb 28 4f 20 3e
       0.07811052 0.15945113 -0.002577789 0.15655196
000380 74 31 f2 bb f8 b2 66 bd c2 b2 bf 3c 58 a0 e7 3d
       -0.007391149 -0.05632302 0.023400668 0.1130988
000390 8f a4 d6 bd 27 2f 18 3e 6f 48 74 bc 8d ef bb bd
       -0.10480606 0.14861737 -0.014909848 -0.0917655
0003a0 98 cc e0 bc c0 f8 f0 bd f0 b9 97 3d 51 c8 00 bd
       -0.027441308 -0.11766195 0.07408512 -0.031441037
0003b0 fa 13 b4 bd 59 83 92 bd 0d c3 9b 3d ec 84 c4 3d
       -0.08792873 -0.07153959 0.07605562 0.09595665
0003c0 41 61 24 ba d7 67 a1 bd 08 e5 dd 3d 42 1a a3 bc
       -0.00062705955 -0.07881134 0.108347 -0.019909982
0003d0 95 ce 90 3d da cb 45 bc a7 71 56 3d 6b a4 5c 3d
       0.070706524 -0.012072528 0.05235448 0.05386774
0003e0 9f 17 70 bc ef 7d c8 bd de cd 89 ba 1d 70 7b bd
       -0.014654069 -0.09789645 -0.0010513624 -0.061386216
0003f0 49 68 8a 3d 9f 4a b0 3c 35 03 12 3e 36 36 01 be
       0.06758172 0.021519957 0.14259036 -0.12618336

mwt_layers.0.A.bias f4 [64]
000000 06 d9 0b 3e b0 64 31 bd 43 9c a1 3d 53 0e f5 3d
       0.13657007 -0.043308914 0.07891133 0.11965623
000010 5a d7 83 bd 38 0b e5 bd 47 46 ea 3b 28 fc 48 bd
       -0.064375594 -0.111837804 0.007149491 -0.0490686
000020 06 ed bb bd bc 47 a9 3d 24 26 ee bd 40 19 b1 bc
       -0.09176068 0.08265635 -0.116283685 -0.021618485
000030 24 a5 d4 bd 6e 6c 24 3d f0 a2 30 3c 9b f7 3c 3d
       -0.103830606 0.04014247 0.010781035 0.046134572
000040 6b ad 3d 3d 00 9f 01 ba 28 c1 19 bd a9 7c 1e 3e
       0.046307962 -0.00049446523 -0.037537724 0.15477242
000050 71 5f 99 38 d8 cb f3 3c 4e cc d2 bd 36 2b 05 be
       7.313386e-05 0.029760286 -0.10292874 -0.13004765
000060 20 15 7a bd 8b 7b b2 bc 34 8c 00 3d cb 51 bd bb
       -0.061055303 -0.021787426 0.031383708 -0.0057775727
000070 fc 49 6c 3d 44 f1 1b 3e c4 08 17 bd 0d 83 85 3d
       0.057687744 0.15228754 -0.036873594 0.065191366
000080 bf 39 92 bb 29 30 ec 3d c5 09 da 3d 07 b6 1a 3d
       -0.0044624503 0.11532623 0.10646395 0.03777125
000090 b1 92 75 3d 60 65 d0 bb b5 be 7a 3c af 41 ca bc
       0.05995435 -0.006359741 0.015304257 -0.024689524
0000a0 15 66 50 bd f0 d7 d5 3d 1e 3a a2 bd d0 78 89 bd
       -0.050878603 0.104415774 -0.07921241 -0.06712496
0000b0 a3 eb 8d bd 80 d9 ce 3c 50 db 39 bc 71 f1 58 3d
       -0.0692971 0.025250196 -0.011343792 0.05296463
0000c0 3e 60 f9 3d a6 83 d0 3d 3e 52 4b bd 78 bd 50 3d
       0.1217656 0.1018136 -0.04963898 0.05096194
0000d0 ac 70 7d 3d 9b 50 9a bd 00 b9 1e 3a 07 89 8d 3d
       0.06187503 -0.075349055 0.0006054789 0.069109015
0000e0 a8 67 80 3c 7b d7 e7 3d e6 90 b5 3d ef 40 2c 3e
       0.015674427 0.113203965 0.08865528 0.16821645
0000f0 14 4e a7 3d 6d 38 7a 3d aa d9 ce 3d b8 7e 8a bd
       0.08169189 0.061088968 0.1010011 -0.06762451

mwt_layers.0.B.weight f4 [64, 64, 1]
000000 49 fe 14 3e a2 05 6c bd 5a dc e1 3d ef e2 14 be
       0.14550127 -0.05762256 0.11028357 -0.14539693
000010 9f 63 23 3e b6 b0 be 3d 75 ed b9 3d 2b f2 34 be
       0.15955971 0.09311049 0.090784945 -0.17670505
000020 99 2f 9e bd eb c7 d5 bd dd db 6f 3d e2 20 5e bd
       -0.07723922 -0.10438522 0.058559287 -0.05423058
000030 1e e0 e9 3c ee 6e c9 3a 81 f8 1d be 2b c3 6b 3a
       0.02854925 0.0015368143 -0.15426828 0.0008993621
000040 f9 2d 1f be f9 a8 88 ba 90 47 3a bd 3e 2e 64 bb
       -0.15544881 -0.0010426334 -0.045478404 -0.0034817602
000050 80 20 a4 bd e9 c1 64 bd 3d 34 ef bd 9f c3 94 bc
       -0.080140114 -0.05584899 -0.116798855 -0.018159686
000060 e9 20 07 be 22 fb 3d 3d 1a 58 43 bd ed 5c 0d 3e
       -0.13196148 0.046382077 -0.047691442 0.1380498
000070 3e 43 11 3e 3c 54 3a 3e 7f 00 1b 3e 95 74 1a bc
       0.14185807 0.18196195 0.15136908 -0.009427209
000080 3a 10 ba 3b 46 52 1c 3e e1 24 46 3d 2b 93 f0 bc
       0.005678204 0.1526576 0.048375014 -0.02936705
000090 bc 59 f1 bd fe 52 18 3e 32 b0 e0 bb 3d 7e 84 bc
       -0.117846936 0.14875409 -0.0068569416 -0.016173476
0000a0 7a 0d a6 bd 76 fb f7 3c a9 cc f1 bc ed 86 d4 3d
       -0.08108039 0.030271273 -0.029516535 0.103772976
0000b0 d1 c6 52 bd 73 26 9b 3b f1 ac 33 3d a1 da 44 3d
       -0.051459137 0.004734808 0.0438661 0.048060063
0000c0 60 14 27 be 4d 52 21 be 62 04 0e 3e fc 05 17 be
       -0.16316366 -0.15754052 0.1386886 -0.14748377
0000d0 2b 99 2e be 4e ea 2b be 57 48 f2 bd 27 9f 13 bd
       -0.17050616 -0.16788599 -0.11830204 -0.03604045
0000e0 8e 04 31 be d2 7f 16 bd 3c b3 b2 3d a9 46 1d 3d
       -0.17286894 -0.036742993 0.087255925 0.038397465
0000f0 7e 39 be 3c 68 92 f6 3d fb f8 25 bd c1 76 21 be
       0.023220774 0.120396435 -0.04052065 -0.15767957
000100 c0 96 82 3d 57 f2 7d 3c be 12 a1 bd de 0c 78 3d
       0.063764095 0.015499673 -0.07864903 0.060559146
000110 34 ee c2 bb c3 83 91 3d 1f 73 10 3e d5 cb 08 bc
       -0.005948806 0.0710521 0.14106415 -0.008349379
000120 70 0b a5 bc 52 37 26 be 6f e8 24 be 7b 41 c1 3d
       -0.020147055 -0.1623204 -0.16104291 0.094363175
000130 7f 79 4f 3d 29 7d 07 3e 90 33 19 3c fb cc 03 be
       0.050652977 0.13231339 0.009350672 -0.12871163
000140 f8 22 15 bd e9 ed 0d be 8e f4 e5 bd e3 ee b8 3d
       -0.036410302 -0.13860287 -0.11228286 0.09029939
000150 c9 9e 84 bd eb 41 09 be 11 39 0b bc b6 bc 0b 3e
       -0.06475598 -0.13404052 -0.008497492 0.13646206
000160 65 ea 30 be 71 ed f2 3d f2 c4 ec 3d 82 4d ff 3c
       -0.17276914 0.118616946 0.11561002 0.031164888
000170 2a 45 9c bd df 53 b4 bb a0 2c a4 3d dd b3 83 bb
       -0.076303795 -0.0055031623 0.08016324 -0.004019244
000180 d1 a2 b3 3b f2 0d 70 bb d8 7b 26 3e 49 c2 29 3e
       0.0054820557 -0.0036629406 0.1625818 0.1657802
000190 7d e8 18 be 58 f0 7f ba ba ed 24 3e 48 08 5a bd
       -0.14932437 -0.0009763292 0.1610631 -0.053230554
0001a0 20 05 69 bd a1 57 81 bc 12 11 33 3d 37 9f 8b 3a
       -0.056889653 -0.015788855 0.04371745 0.0010652308
0001b0 c5 b4 21 be c3 ee ab bd 61 43 e4 3c a6 3f e1 3c
       -0.15791614 -0.083951496 0.02786416 0.02749617
0001c0 97 17 d3 3c 35 57 5d bc 0e d3 7c 3d 20 32 cf 38
       0.025768084 -0.013509561 0.061724715 9.879866e-05
0001d0 43 1d 51 bd d6 07 22 be 03 4f 1e be 95 c6 0d be
       -0.051053297 -0.15823302 -0.15459828 -0.13845284
0001e0 72 e1 87 bd f0 23 b9 bd 3f 4e 31 3c 19 99 60 3d
       -0.06634797 -0.09040058 0.010821878 0.054833505
0001f0 32 00 27 3e 51 1a 4a 3d 72 d7 a1 3d b5 8a af ba
       0.16308668 0.049341504 0.07902421 -0.0013392778
000200 dc 0f 9e 3c 91 7d b5 bd 6a 5a 83 bd b5 33 37 be
       0.019294672 -0.088618405 -0.064137295 -0.17890818
000210 57 22 76 3d ef 98 8e 39 20 c9 c0 3d 21 43 fc bc
       0.060091343 0.00027198295 0.094133615 -0.030793728
000220 59 5f 0c 3d fd d5 92 bd 08 d0 5c bd 6a be 11 3e
       0.034270618 -0.07169721 -0.05390933 0.14232793
000230 1f 40 9b 3d ea c9 f3 3d 07 3c 02 be 73 e0 01 be
       0.075805895 0.119037464 -0.12718211 -0.12683277
000240 77 1f 06 3d 58 a0 1f 3d b0 50 cc bd 4a af a8 3d
       0.03274485 0.038971275 -0.099763274 0.08236559
000250 64 d8 32 be 35 bf 59 bd 74 6e 32 be e6 7d 03 3e
       -0.17465359 -0.053160865 -0.17424947 0.12840995
000260 dd 2c 3a be ba 3f a4 bc 04 1b 30 3e 5c e4 0c 3c
       -0.18181176 -0.020049918 0.17197806 0.008599367
000270 1d 1a 99 bc 32 94 2c 3e 51 c0 7c bc 81 a0 ac 3d
       -0.01868921 0.16853407 -0.015426711 0.08429051
000280 9b fe ff 3d 33 40 b9 3d f3 18 c9 bc 37 33 35 3e
       0.12499734 0.09045448 -0.02454803 0.17695318
000290 f8 8b 14 3c d7 6f 00 bd c6 04 64 bc 26 40 ab bd
       0.009066574 -0.03135666 -0.013917154 -0.08361845
0002a0 03 c9 65 3d 57 e1 0a 3c 9d a4 39 bd 3f f7 cb 3d
       0.056099903 0.008476577 -0.045323003 0.09959268
0002b0 0b 9f 99 3d 6c 66 d4 bc 0a 32 b9 3b e3 28 01 3e
       0.07501038 -0.025927745 0.005651717 0.12613253
0002c0 58 e7 32 bd 60 43 67 bd f7 8e 35 3e 43 29 02 3d
       -0.043677658 -0.05646074 0.17730318 0.03177763
0002d0 dc 93 1d 3d ce 87 db bd 31 aa ee bd 3c 77 f0 bd
       0.038471088 -0.10719262 -0.11653555 -0.11741492
0002e0 d5 71 23 be 87 b0 27 bb 47 06 51 3d f8 e5 8b 3d
       -0.15961392 -0.0025587396 0.051031377 0.068309724
0002f0 80 55 c8 3c 91 f7 0c 3d 6e 56 09 bd e9 1f 0a be
       0.024454832 0.034415785 -0.03352969 -0.13488735
000300 57 f4 48 3d 8a 05 c4 bd 4d 4b 50 3d 2e 96 81 3d
       0.049061146 -0.09571369 0.050853062 0.063274726
000310 66 c2 87 3d 84 5b 0d 3e 83 09 1d bd fc b2 23 bd
       0.066288754 0.13804442 -0.03833915 -0.039965615
000320 b7 d8 2c be 85 44 19 bd 2e ce 02 be a3 9c 1e 3e
       -0.16879545 -0.03741886 -0.12773964 0.1548944
000330 fc ff 90 bd 6a 1f af 3d e8 a6 ef bd 6c c3 06 ba
       -0.07080075 0.08550914 -0.11701757 -0.00051408145
000340 17 a5 39 bd fe e3 4a bd d0 1d ab bd 5e 1c fc 3d
       -0.045323458 -0.049533837 -0.08355296 0.12310098
000350 61 f9 8b bd fa 60 0a bd eb 22 9e bd ca b1 50 bd
       -0.068346746 -0.03378389 -0.07721504 -0.050950803
000360 5a e3 ba bd 99 46 0b 3e 1f 96 20 3e 16 38 c7 bc
       -0.09125395 0.1360115 0.15682267 -0.024318736
000370 a0 15 45 3d 15 8b 7f 3d 2c 1b 1d 3e 3a 65 66 3d
       0.048116326 0.0623885 0.15342396 0.05624888
000380 43 4e 2f 3d 5e 12 17 3b 41 b7 8d 3d 80 d9 a4 bd
       0.042799246 0.002305172 0.069197185 -0.08049297
000390 62 67 28 be 5b 7c 8a 3c b0 38 3b bd 0e 6a fc bd
       -0.16445687 0.016905 -0.04570836 -0.12324916
0003a0 77 e6 5e 3b 4e 15 40 3d 67 7c 9e 3c bf 36 8b bb
       0.003401188 0.046895318 0.019346429 -0.0042484696
0003b0 79 fb 25 bd 7a b5 a8 3d 38 86 0b bb 7a 2e fb 3d
       -0.040523026 0.08237739 -0.0021289717 0.12264724
0003c0 b0 93 c9 bd 96 96 21 be 6c 63 51 bc 58 6f 01 bd
       -0.09842622 -0.157801 -0.012780052 -0.031600326
0003d0 42 53 72 bd c3 55 dd bd 7f 81 a5 3d ca 52 17 be
       -0.059161432 -0.108073734 0.0808134 -0.14777675
0003e0 eb 7e 08 bd 7a d8 92 3d d6 9c 76 bd b8 76 b2 3d
       -0.033324163 0.07170196 -0.060208164 0.0871405
0003f0 58 aa 3e 3d 9a dd 1e bd f3 76 cb bc ba d4 bd bd
       0.04654917 -0.038785554 -0.024836993 -0.0926909

mwt_layers.0.B.bias f4 [64]
000000 89 12 bd 3c f1 ae 23 3e 74 5e 41 bd 75 67 05 bd
       0.023080127 0.15984704 -0.04720922 -0.032569367
000010 db f4 22 3e fc 1b f0 bd 96 01 33 bd 74 f9 1f 3d
       0.15913717 -0.117240876 -0.043702684 0.039056256
000020 84 cb 4c 3d 00 6f 23 bd 52 df c8 bd 99 65 10 3e
       0.049998775 -0.03990078 -0.0980822 0.14101256
000030 70 7a c4 bd 44 1d 01 3e b0 4c 19 3c 71 9d 9e bd
       -0.095936656 0.1260882 0.009356663 -0.07744873
000040 be 9a 3c 3c 00 b5 89 bb 4a 14 d5 bd 0f 5c 1c 3e
       0.011511503 -0.004202485 -0.104042605 0.15269493
000050 e8 00 a0 bd 18 0d b7 bc 9c 21 89 bd 51 94 a3 3c
       -0.07812673 -0.02234511 -0.066958636 0.019968184
000060 56 9e ab bd 6c 7b 1a 3e 0c aa 1b bd 97 6c 2a 3e
       -0.083798096 0.15086144 -0.038003966 0.16642986
000070 0a 0a 39 3d ce c2 85 3c ea af e5 bd eb d1 e4 3d
       0.04517559 0.016328242 -0.112151936 0.11172851
000080 9f c1 de bb 6f d7 87 bd c8 bb e5 3d 8e 27 80 3d
       -0.006797984 -0.066328876 0.11217457 0.062575445
000090 36 3c 9d bd 28 de 99 bd d2 d5 39 3c 4d 22 a9 3d
       -0.076775 -0.07513076 0.011342483 0.082584955
0000a0 8c 42 bb 3d a6 2b 9e bd 58 85 b3 bd 71 7f 20 3e
       0.09143552 -0.07723169 -0.08765668 0.15673615
0000b0 14 80 36 3c 18 ca 79 3d fa 41 f1 bd 01 8c 61 3d
       0.011138935 0.060983747 -0.11780162 0.05506516
0000c0 84 75 22 3e 91 cc c7 3c 84 62 20 3e f0 f4 d8 3c
       0.15865141 0.024389537 0.1566258 0.026483983
0000d0 40 d9 9f 3b 0f 2a 1a 3d b4 40 33 bd 39 09 18 3d
       0.004878193 0.037637766 -0.043762878 0.03711817
0000e0 58 82 c8 bc 7d 86 a0 3d ab ad a5 bb a4 e6 26 bc
       -0.024476215 0.078381516 -0.005056103 -0.010186825
0000f0 08 1d f1 3d 29 35 a8 bd 08 70 01 3e d0 b9 4d 3c
       0.117731154 -0.082132645 0.12640393 0.012556508

mwt_layers.0.C.weight f4 [64, 64, 1]
000000 e0 11 03 bc 80 89 05 bc 28 2f e0 3c a0 b2 ab 3b
       -0.007999867 -0.008150458 0.027366236 0.0052397996
000010 e8 60 df 3d 54 0c cd 3d de 86 fe 3d e4 90 9b 3d
       0.10907155 0.10012117 0.124280676 0.07595995
000020 80 c6 2d 3b 70 67 46 bd 4c 13 3e bd e0 4c 9b 3d
       0.002651602 -0.04843849 -0.04640512 0.07583022
000030 e0 1d 22 bc fa 9a e5 bd e0 a9 80 3b 88 75 f1 bc
       -0.009894818 -0.112112 0.0039265007 -0.029474989
000040 58 40 b9 bd ce 28 c2 bd 80 08 3b bc 8c 3b 37 3d
       -0.09045476 -0.09480439 -0.011415601 0.044734523
000050 24 21 8a 3d 0e 5f b7 bd 60 7f d8 bd a8 6a c3 bd
       0.06744602 -0.08953677 -0.1057117 -0.095418274
000060 e0 2c a4 bb b0 56 27 bc d8 25 6f 3d 8e 63 d0 bd
       -0.0050102323 -0.010213539 0.0583857 -0.101752385
000070 7c f0 e8 3d 24 38 19 bd ca 7a f2 bd 80 6c a1 bd
       0.11373994 -0.037407055 -0.118398264 -0.07882023
000080 58 6d f8 3c e8 24 d4 bc 54 5b b9 3d 00 5c 1a ba
       0.030325577 -0.025896505 0.090506226 -0.0005888343
000090 82 ca 9b 3d 20 3f d4 3d 64 95 42 bd 50 4a 28 3c
       0.07606985 0.10363603 -0.04750575 0.010271624
0000a0 c0 9a 1c bc 10 21 6a bd f0 12 e9 bd d0 98 78 bd
       -0.00955838 -0.057160437 -0.11380565 -0.06069261
0000b0 94 c3 82 3d 20 da c4 bc 62 9c e1 bd 3c 8e 07 3d
       0.0638496 -0.024029791 -0.11016156 0.03309463
0000c0 e8 e5 3a 3d 08 20 bc 3c d2 bc cf 3d 2a 2d c4 bd
       0.045629412 0.022964492 0.101434365 -0.09578927
0000d0 e4 fe 49 bd c0 4a ed bb 06 eb a8 bd a4 92 2c 3d
       -0.04931535 -0.007241577 -0.08247952 0.042132035
0000e0 d0 8c 00 bd 70 8e ee 3d c0 5a 29 bd 34 f0 b4 bd
       -0.03138429 0.116482615 -0.04134631 -0.088348776
0000f0 ae 7b c4 3d 84 b1 fb 3d 3a 9d bc 3d 1a 18 c6 bd
       0.095939025 0.12289718 0.09209676 -0.09672566
000100 d0 35 7d bd 48 14 71 3d 0c 20 eb 3d 10 87 ae 3d
       -0.061818898 0.058857232 0.11480722 0.08521855
000110 5c e8 da bd 50 60 2c bd 60 b9 ec bb 9c 49 7b 3d
       -0.1068885 -0.04208404 -0.007224247 0.061349496
000120 56 41 b1 bd 44 5d 4a 3d 20 ae ef bc 58 29 1e 3d
       -0.0865504 0.04940535 -0.029257834 0.038613647
000130 f8 67 a3 bc 62 b9 f7 3d f0 70 57 bc d8 8c 45 bd
       -0.019947037 0.12095906 -0.013149485 -0.048230022
000140 10 4f a6 bc 80 c3 7c bd 66 b4 d3 bd 9e 58 a5 3d
       -0.020301372 -0.06170988 -0.10337143 0.08073543
000150 ec 43 9b bd 80 e9 5e bd 06 fa 83 bd 80 40 a7 ba
       -0.075813144 -0.0544219 -0.064441726 -0.0012760311
000160 0c d3 8f 3d 04 12 0a bd 00 1e 3f 3a 10 c0 35 bd
       0.07022676 -0.033708587 0.0007290542 -0.04437262
000170 5e 65 c8 3d 18 dc 96 bc da db b6 3d 48 3f 0b bd
       0.09784959 -0.018415496 0.08928652 -0.033995897
000180 cc 04 11 bd 4a 84 8d bd 98 30 ab bd d4 14 8b 3d
       -0.035404965 -0.06909998 -0.08358878 0.06791082
000190 62 3c f1 bd 90 f8 cb 3c a0 2e d5 3d 0c 1f be bd
       -0.11779095 0.024898797 0.10409284 -0.092832655
0001a0 64 77 52 3d 28 44 fa 3c a0 66 42 3c 60 1e f3 3d
       0.05138339 0.030550078 0.011865288 0.11871028
0001b0 70 f9 af bd 62 6c 96 3d c0 12 7e bd bc 54 98 3d
       -0.08592498 0.07344891 -0.0620296 0.07438037
0001c0 b0 70 21 3c 60 01 15 3c 96 fb d9 bd 50 77 69 3c
       0.009853527 0.009094566 -0.10643689 0.014249638
0001d0 06 0a bc bd 78 b8 d4 bd d4 51 8f 3d 80 f1 91 3a
       -0.09181599 -0.10386747 0.06998029 0.0011134595
0001e0 18 8f 03 bd e8 da a2 bc 04 2e cb 3d c0 31 13 bb
       -0.032118887 -0.019879773 0.09920886 -0.0022460073
0001f0 52 de a3 bd 6c 59 f7 3d 90 43 8e bd 20 45 b9 3d
       -0.080013886 0.12077603 -0.0694648 0.09046388
000200 4c 97 d5 3d c8 22 bb 3c 7a d0 e7 bd 28 3b 17 bd
       0.10429248 0.022843733 -0.113190606 -0.03692165
000210 a8 7b d5 bd 6a 68 e0 bd 00 2e bd bd d8 eb 87 bd
       -0.10423976 -0.109574154 -0.092372894 -0.066367805
000220 5c 40 ec bd d8 93 8c bd 9a 3f ca bd 5e b5 c6 bd
       -0.11535713 -0.068641365 -0.09875412 -0.09702562
000230 ac b6 a7 bd 9a 60 f6 bd 80 10 13 3b c0 ff 2f 3c
       -0.08189139 -0.12030144 0.0022440255 0.010742128
000240 80 cc c4 bc 56 72 fc 3d 7c 0a 78 3d 12 06 a1 3d
       -0.024023294 0.12326495 0.060556874 0.07862486
000250 7e a6 85 3d 32 2e 87 bd 38 2f 02 3d 10 1d 23 3d
       0.065258965 -0.06600608 0.031783313 0.039822638
000260 7a 67 bc bd f2 6b df 3d ca 0f 98 bd c0 84 7c bc
       -0.09199424 0.10909261 -0.074248865 -0.015412509
000270 1a 03 fa bd 9c f7 c7 bd 68 4d cd 3d fa b5 bb bd
       -0.12207623 -0.097640246 0.1002453 -0.09165569
000280 9c 64 e6 3d 20 76 84 3d d6 b4 ec 3d f8 e0 6f bd
       0.112496585 0.06467843 0.11557929 -0.058564156
000290 6e ab c8 bd 5c fd d4 3d 5c 70 51 bd 90 74 72 bc
       -0.097983226 0.10399887 -0.051132545 -0.0147982985
0002a0 2c 88 ee 3d bc 03 68 bd 00 de 2f bd 44 92 92 3d
       0.116470665 -0.056644186 -0.042936325 0.07156804
0002b0 7e 4e e7 3d 80 3e b8 3b 80 5c a4 3a bc e3 b5 3d
       0.11294268 0.005622685 0.0012539774 0.088813275
0002c0 18 27 50 bd d6 d3 cc 3d 00 24 97 3d 10 74 89 3c
       -0.050818533 0.10001342 0.07379913 0.016778976
0002d0 7c c7 86 bd 48 be e1 3d b8 98 07 bd c8 ad 80 bd
       -0.065810174 0.110226214 -0.03310463 -0.06283146
0002e0 40 ed d9 bc 00 ad 9f 3c 3a 97 fd bd e0 85 ee 3c
       -0.026602387 0.019491673 -0.1238236 0.029116571
0002f0 20 e1 96 bc e4 ed 1a 3d c0 29 76 bb fa dc 86 bd
       -0.018417895 0.037824526 -0.0037561506 -0.06585117
000300 80 38 f4 bc cc a3 13 bd e2 2f d9 3d 4c 72 e2 bd
       -0.029812098 -0.03604488 0.10604836 -0.11056957
000310 80 26 13 3d 2a ff e7 3d bc a2 1e 3d fc dc 87 bd
       0.03592539 0.113279656 0.038729414 -0.06633946
000320 58 97 16 3d 50 8d 4d 3d a0 73 5c 3d 60 a9 29 3c
       0.036765426 0.050183594 0.053821206 0.010355324
000330 7a 3c e0 bd a0 48 e5 3c e0 18 d7 bc 54 39 88 3d
       -0.10949035 0.027988732 -0.026256979 0.066515595
000340 bc 4d e5 3d b0 3c 37 bd 40 46 0b 3b 50 e0 d1 3d
       0.11196467 -0.04473561 0.002125159 0.10247862
000350 38 5c af bc 10 e7 9a 3c 6c 9b 46 bd 5c 49 00 3d
       -0.021406278 0.018909007 -0.048488066 0.03131996
000360 d8 4b 53 bd 30 90 e0 bd c8 6b e0 bd b8 df 60 3d
       -0.051586002 -0.109650016 -0.10958058 0.054900855
000370 50 c8 99 bc d8 b9 b2 3c 84 b3 ab 3d 00 6e d6 3c
       -0.018772274 0.021817133 0.08383849 0.026175499
000380 e6 cd e2 3d f0 b0 1c 3d 16 24 e9 bd 24 19 a2 3d
       0.11074428 0.03825468 -0.11383836 0.079149514
000390 a6 62 e5 bd c0 3e 76 3d b0 4e 1f bc 66 2d f4 bd
       -0.11200456 0.060118437 -0.00972335 -0.119227216
0003a0 80 44 c1 bc 70 7f df 3d 18 92 69 bd cc 8d 5d bd
       -0.023592234 0.10912979 -0.05702409 -0.054090306
0003b0 56 70 8a 3d 78 84 d0 3c 80 bd 4e 3d 68 5d a1 bd
       0.06759708 0.025453791 0.05047369 -0.07879144
0003c0 6c 30 2e bd 20 84 a6 bd 58 2c e9 3c b0 81 d0 3c
       -0.042526647 -0.081306696 0.028463528 0.025452465
0003d0 9c 35 80 bd 36 a9 8b bd 98 16 6e 3d 00 5a 26 3c
       -0.06260225 -0.06819384 0.058127016 0.010153294
0003e0 00 75 d1 3c 20 a7 ee bc 78 cd e2 bd 8a 6d a4 3d
       0.025568485 -0.029132426 -0.11074346 0.080287054
0003f0 3c ad ef 3d 9e 20 d9 3d c4 87 bc bd a0 b0 71 bd
       0.11702964 0.10601924 -0.09205583 -0.059006333
